models/20260225_221149/negate_pca.onnx (onnx, 580 bytes, 2 tensors)

transform_matrix f4 [26, 2]
0	0x2e637466	5.1717207e-11
1	0x2f859572	2.4298746e-10
2	0x3ef0f566	0.47062224
3	0x3f3f7534	0.7478821
4	0x2c282e46	2.3899923e-12
5	0x2d2347e8	9.281444e-12
6	0xabbdbc16	-1.3481462e-12
7	0xac80a324	-3.656091e-12
8	0x3f078419	0.5293594
9	0xbf2131f8	-0.6296687
10	0x2c150da7	2.1181752e-12
11	0x2cb0521c	5.011337e-12
12	0x298a7f9f	6.15057e-14
13	0x2b805480	9.1184e-13
14	0xac09bdfc	-1.9574333e-12
15	0xabcb0f49	-1.442826e-12
16	0x2f8940f6	2.4966312e-10
17	0xb03ac715	-6.794932e-10
18	0x2c0761ac	1.9238873e-12
19	0x2c0c4600	1.9934054e-12
20	0x3ef4f1dd	0.47840777
21	0xbe2f5c95	-0.17125161
22	0x2bd07ccd	1.4813928e-12
23	0x2b84b0df	9.428256e-13
24	0xb1906a53	-4.2030392e-09
25	0xaec2cf35	-8.858906e-11
26	0x33ca3118	9.415288e-08
27	0x33841a4b	6.151512e-08
28	0x2a4923ec	1.7864849e-13
29	0xaa64a76e	-2.0308557e-13
30	0xad47f649	-1.1366527e-11
31	0xafb33167	-3.2595013e-10
32	0x2a492c20	1.7867695e-13
33	0xaa64857d	-2.0296781e-13
34	0x2cab05fa	4.860776e-12
35	0x2c92b0ed	4.1692123e-12
36	0x2e61c4a4	5.133373e-11
37	0x2f8261e1	2.371641e-10
38	0x2f854a5b	2.4245392e-10
39	0xb0539a34	-7.698049e-10
40	0x2c070457	1.9187063e-12
41	0x2c0a1a82	1.9625694e-12
42	0x2ca9967b	4.8199756e-12
43	0x2c8fb5dd	4.0844953e-12
44	0xac161d9b	-2.1332716e-12
45	0xad034c4d	-7.46343e-12
46	0x3f04e0de	0.5190562
47	0x3df9ad01	0.12191201
48	0x2bbfa955	1.3618365e-12
49	0x2ce1920d	6.4110995e-12
50	0xac09bdfc	-1.9574333e-12
51	0xabcb0f49	-1.442826e-12

mean f4 [26]
0	0xc2224f8c	-40.577682
1	0x52ce3236	4.4280283e+11
2	0x41b8d77c	23.105217
3	0x3e1e257b	0.15443985
4	0x52caf6f3	4.3586326e+11
5	0x3edae1a3	0.42750272
6	0x3f0c954a	0.549153
7	0x41615eb1	14.085618
8	0x44567f09	857.9849
9	0x3f67c3a5	0.90532905
10	0x52c79af7	4.286492e+11
11	0x4194df7d	18.609125
12	0x453c7e7b	3015.905
13	0x47a4fe44	84476.53
14	0x3f529f17	0.82274
15	0x45bdf6f8	6078.871
16	0x3f529ef6	0.82273805
17	0x3fabd9d5	1.3425852
18	0xc22474ef	-41.114193
19	0x445054e9	833.3267
20	0x3f63cd44	0.88985085
21	0x3fa766e2	1.3078272
22	0x4066ac75	3.604276
23	0x52d02a74	4.4703272e+11
24	0x41994fb1	19.163912
25	0x41615eb1	14.085618
