models/20260225_183745/negate_pca.onnx (onnx, 580 bytes, 2 tensors)

transform_matrix f4 [26, 2]
-7.841878e-12 1.7598287e-10 0.47656578 0.75939274 1.9159477e-12 1.1028365e-11 1.2476385e-13 -2.8862226e-13
0.52599955 -0.61173457 2.1347182e-12 5.6517833e-12 1.5433188e-13 9.639791e-13 -1.9359525e-12 -1.351031e-12
8.5576385e-10 5.980932e-10 1.1708239e-12 6.4065024e-13 0.46553263 -0.19836359 1.707174e-12 2.1363252e-12
-3.1703082e-09 1.384195e-09 8.6823206e-08 4.137308e-08 1.0848054e-13 -3.245433e-13 6.736973e-11 3.782207e-10
1.0848915e-13 -3.2435892e-13 1.9549403e-12 7.1415725e-13 -6.725986e-12 1.8252566e-10 8.507655e-10 6.368689e-10
1.1673522e-12 6.469147e-13 1.938633e-12 7.285591e-13 -2.5502152e-12 -8.733794e-12 0.52866703 0.09876961
1.3955339e-12 7.848942e-12 -1.9359525e-12 -1.351031e-12
00000000: aef4 09ad c67e 412f 6e00 f43e 9067 423f
00000010: a5d2 062c 5703 422d bb78 0c2a da7a a2aa
00000020: e8a7 063f a39a 1cbf aa37 162c bdda c62c
00000030: 23c3 2d2a 02ab 872b 053b 08ac 0624 beab
00000040: 073b 6b30 1167 2430 60c7 a42b b753 342b
00000050: 4b5a ee3e d31f 4bbe 6d43 f02b 9d54 162c
00000060: a7dc 59b1 083e be30 9073 ba33 2fb2 3133
00000070: c646 f429 9eb3 b6aa c925 942e d5ed cf2f
00000080: bd4b f429 0c99 b6aa 1391 092c 7404 492b
00000090: 4ca6 ecac 68b0 482f 4ddb 6930 aa0f 2f30
000000a0: 4c4a a42b 1e17 362b 4f6b 082c 3712 4d2b
000000b0: 9874 33ac 83a5 19ad b956 073f b947 ca3d
000000c0: 6867 c42b 7e14 0a2d 053b 08ac 0624 beab

mean f4 [26]
-70.85295 4.4452744e+11 23.64955 -0.03774954 4.3115853e+11 0.24212979 0.5145891 14.109857
572.9459 0.5575322 4.241773e+11 18.943943 2783.6965 85016.695 0.84788907 6063.264
0.84788674 0.44869915 -69.910614 554.6636 0.54961747 0.43899387 3.7827313 4.4404936e+11
19.627916 14.109857
00000000: b6b4 8dc2 cdff ce52 4732 bd41 439f 1abd
00000010: 1ac6 c852 dff0 773e 1cbc 033f f9c1 6141
00000020: 8a3c 0f44 6eba 0e3f e085 c552 328d 9741
00000030: 25fb 2d45 590c a647 420f 593f 1d7a bd45
00000040: 1b0f 593f e5bb e53e 3cd2 8bc2 78aa 0a44
00000050: bbb3 0c3f cec3 e03e 4518 7240 cfc6 ce52
00000060: f905 9d41 f9c1 6141
