models/20260225_185933/negate_pca.onnx (onnx, 580 bytes, 2 tensors)

transform_matrix f4 [26, 2]
000000 7f 27 0a ad 7d 74 41 2f 6e 00 f4 3e 90 67 42 3f
       -7.853162e-12 1.7594633e-10 0.47656578 0.75939274
000010 90 d4 06 2c c5 03 42 2d 4a cd 09 2a bd b2 ac aa
       1.9160541e-12 1.102846e-11 1.2239268e-13 -3.0677362e-13
000020 e8 a7 06 3f a3 9a 1c bf aa 37 16 2c bd da c6 2c
       0.52599955 -0.61173457 2.1347182e-12 5.6517833e-12
000030 23 c3 2d 2a 02 ab 87 2b 05 3b 08 ac 06 24 be ab
       1.5433188e-13 9.639791e-13 -1.9359525e-12 -1.351031e-12
000040 c6 56 6b 30 95 bd 21 30 36 c3 a4 2b 10 44 34 2b
       8.5615814e-10 5.884087e-10 1.1707083e-12 6.40433e-13
000050 4b 5a ee 3e d3 1f 4b be 6d 43 f0 2b 9d 54 16 2c
       0.46553263 -0.19836359 1.707174e-12 2.1363252e-12
000060 a7 dc 59 b1 08 3e be 30 90 73 ba 33 2f b2 31 33
       -3.1703082e-09 1.384195e-09 8.6823206e-08 4.137308e-08
000070 c6 46 f4 29 9e b3 b6 aa c9 25 94 2e d5 ed cf 2f
       1.0848054e-13 -3.245433e-13 6.736973e-11 3.782207e-10
000080 bd 4b f4 29 0c 99 b6 aa f6 8d 09 2c f3 d8 48 2b
       1.0848915e-13 -3.2435892e-13 1.9547675e-12 7.135535e-13
000090 92 20 eb ac f9 8e 48 2f 19 12 69 30 d2 c9 2c 30
       -6.6827177e-12 1.8240688e-10 8.4790625e-10 6.286004e-10
0000a0 ac 40 a4 2b 23 f9 35 2b 88 66 08 2c bd ca 4c 2b
       1.1670851e-12 6.4649864e-13 1.9383679e-12 7.2756715e-13
0000b0 98 74 33 ac 83 a5 19 ad b9 56 07 3f b9 47 ca 3d
       -2.5502152e-12 -8.733794e-12 0.52866703 0.09876961
0000c0 68 67 c4 2b 7e 14 0a 2d 05 3b 08 ac 06 24 be ab
       1.3955339e-12 7.848942e-12 -1.9359525e-12 -1.351031e-12

mean f4 [26]
000000 6f b1 8d c2 cd ff ce 52 47 32 bd 41 97 64 1a bd
       -70.84655 4.4452744e+11 23.64955 -0.037693586
000010 1a c6 c8 52 df f0 77 3e 1c bc 03 3f f9 c1 61 41
       4.3115853e+11 0.24212979 0.5145891 14.109857
000020 01 37 0f 44 7a ba 0e 3f e0 85 c5 52 32 8d 97 41
       572.85944 0.5575329 4.241773e+11 18.943943
000030 25 fb 2d 45 59 0c a6 47 42 0f 59 3f 1d 7a bd 45
       2783.6965 85016.695 0.84788907 6063.264
000040 1b 0f 59 3f f5 bc e5 3e db cc 8b c2 a3 a1 0a 44
       0.84788674 0.44870725 -69.90011 554.5256
000050 4b b3 0c 3f 50 c3 e0 3e 45 18 72 40 cf c6 ce 52
       0.5496108 0.43899012 3.7827313 4.4404936e+11
000060 f9 05 9d 41 f9 c1 61 41
       19.627916 14.109857
